…
   "cell_type": "markdown",
   "metadata": {},
   "source": [
    "Creation of neural network architecture. 3 convolution stages."
   ]
  },
  {
   "cell_type": "code",
   "execution_count": 3,
   "metadata": {},
   "outputs": [
    {
     "name": "stdout",
     "output_type": "stream",
     "text": [
      "Model: \"sequential\"\n",
      "_________________________________________________________________\n",
      " Layer (type)                Output Shape              Param #   \n",
      "=================================================================\n",
      " conv2d (Conv2D)             (None, 480, 750, 20)      560       \n",
      "                                                                 \n",
      " conv2d_1 (Conv2D)           (None, 480, 750, 20)      3620      \n",
      "                                                                 \n",
      " max_pooling2d (MaxPooling2D  (None, 160, 250, 20)     0         \n",
      " )                                                               \n",
      "                                                                 \n",
      " conv2d_2 (Conv2D)           (None, 160, 250, 40)      7240      \n",
      "                                                                 \n",
      " conv2d_3 (Conv2D)           (None, 160, 250, 40)      14440     \n",
      "                                                                 \n",
      " max_pooling2d_1 (MaxPooling  (None, 53, 83, 40)       0         \n",
      " 2D)                                                             \n",
      "                                                                 \n",
      " dropout (Dropout)           (None, 53, 83, 40)        0         \n",
      "                                                                 \n",
      " conv2d_4 (Conv2D)           (None, 53, 83, 100)       36100     \n",
      "                                                                 \n",
      " conv2d_5 (Conv2D)           (None, 53, 83, 100)       90100     \n",
      "                                                                 \n",
      " max_pooling2d_2 (MaxPooling  (None, 17, 27, 100)      0         \n",
      " 2D)                                                             \n",
      "                                                                 \n",
      " dropout_1 (Dropout)         (None, 17, 27, 100)       0         \n",
      "                                                                 \n",
      " flatten (Flatten)           (None, 45900)             0         \n",
      "                                                                 \n",
      " dense (Dense)               (None, 100)               4590100   \n",
      "                                                                 \n",
      " dense_1 (Dense)             (None, 300)               30300     \n",
      "                                                                 \n",
      " dense_2 (Dense)             (None, 100)               30100     \n",
      "                                                                 \n",
      " dense_3 (Dense)             (None, 1)                 101       \n",
      "                                                                 \n",
      "=================================================================\n",
      "Total params: 4,802,661\n",
      "Trainable params: 4,802,661\n",
      "Non-trainable params: 0\n",
      "_________________________________________________________________\n",
      "None\n"
     ]
    },
    {
     "name": "stderr",
…
